tests/test_model.pt (torch, 247157 bytes, 36 tensors)

trunk.0.weight f4 [128, 13]
000000 53 43 57 be 48 09 b3 bc 26 10 2d bd 1a a7 19 be
       -0.21021776 -0.021855012 -0.04225173 -0.1500515
000010 0d 36 27 3e c9 8c 75 be fd 42 17 3e 63 13 d4 3d
       0.16329212 -0.23979487 0.14771648 0.1035526
000020 5d 8d 7b 3d f5 16 64 3e 97 05 2d be 26 16 be bd
       0.06141411 0.22274382 -0.16896664 -0.09281568
000030 0f f7 14 3e 54 f9 b6 3d 00 88 47 3e 46 ee 7e be
       0.1454737 0.08934274 0.19485474 -0.24895582
000040 43 4a 5b 3d d1 2b 15 3e 8f 91 84 3e ac 94 13 3e
       0.05353762 0.14567496 0.25892302 0.14412183
000050 51 34 4f bb ca 8d 02 3e 80 ef 6e 3e 44 c6 c4 3c
       -0.0031616876 0.127494 0.2333355 0.024020322
000060 3c ef 0c 3e 84 37 12 bd 98 f1 2e bd f2 ad 8c 3e
       0.13763136 -0.035697475 -0.04271087 0.2747646
000070 ab 77 a7 3a db 64 6c bd d8 98 3f 3d 4e 56 23 be
       0.0012776753 -0.05771337 0.046776623 -0.15950891
000080 e7 a6 84 3e 3e a5 2a bd b5 29 88 bd f9 dc c1 3d
       0.25908586 -0.041661493 -0.0664858 0.09465975
000090 d2 06 c5 3c a6 ef 18 be 12 1f f4 bd 4e 11 0d 3d
       0.024051104 -0.14935169 -0.11919989 0.03444033
0000a0 3e 3d 8b bc 2a 26 d0 3c 53 90 db bd 64 e5 16 3d
       -0.016996976 0.025408823 -0.10720887 0.036839858
0000b0 52 ed 0d 3e 4e c6 87 3e 45 4f 4b be 04 e5 ca 3a
       0.13860062 0.26518482 -0.19854458 0.0015479629
0000c0 37 44 8d be 5b 72 27 be 06 4f 6f 3e 53 80 87 3e
       -0.27591106 -0.16352217 0.23369989 0.2646509
0000d0 e9 d2 c0 bd ea 71 98 bd 01 c3 68 bc 24 03 80 be
       -0.09415228 -0.074436024 -0.014206649 -0.25002396
0000e0 4b 53 5b be ad a3 f2 bc 1d 0f e1 3c 42 2c 5c be
       -0.21418492 -0.029619062 0.027473027 -0.21501258
0000f0 85 4d 8d be 74 1f 3c 3d d0 f8 56 be 67 c2 0d 3e
       -0.27598205 0.045928434 -0.20993352 0.1384369
000100 ff 73 1b bd 30 52 32 3e e7 5c cb bc e6 a7 8b be
       -0.03795242 0.17414165 -0.024824573 -0.27276534
000110 fa 05 38 3e 4b 36 ae bd 65 a9 99 3d 5d 3a 55 3e
       0.1797103 -0.08506449 0.075030126 0.20823045
000120 98 b0 26 3e d7 10 20 be d6 e6 87 be 5e 43 66 3d
       0.16278303 -0.15631424 -0.265433 0.05621659
000130 25 0a 96 3c 0d 83 c6 3d 49 b2 82 bd ba db 73 bd
       0.018315384 0.09692965 -0.063816614 -0.05953572
000140 0c 04 4b bd 0a 21 81 3e 13 c7 61 3e d0 74 35 3b
       -0.049564406 0.2522052 0.22048597 0.0027688034
000150 c2 83 17 3d 4e 52 7e be 72 ef d1 3c 01 f9 84 3e
       0.03699089 -0.24836084 0.025626872 0.25971225
000160 77 dd cc 3d 01 ee 59 3e 12 46 8d 3d 3b 1e 20 3d
       0.100031786 0.21282198 0.068981305 0.03909133
000170 fd 9b 5d be fe 63 30 bd 81 aa ef bd 75 f6 f0 bd
       -0.21641536 -0.04306411 -0.11702443 -0.11765758
000180 97 25 5f bd db 69 46 3e 95 75 78 be 41 96 9d bd
       -0.054479208 0.19376318 -0.24263604 -0.07694674
000190 26 39 1d 3e 9a 05 cc bc 81 45 6e 3e a0 db 11 3e
       0.15353832 -0.024905015 0.23268701 0.14243937
0001a0 b4 90 13 3e 57 c9 05 be b4 c2 5c 3e ac d3 cc 3c
       0.14410669 -0.13065086 0.21558648 0.025003277
0001b0 d0 b8 eb bd 7a eb bc bd e7 cc 8b 3e 57 29 16 be
       -0.115098596 -0.09224601 0.27304766 -0.14664207
0001c0 e8 e4 87 3e 2c 10 20 3e 9c 70 67 be a7 45 86 3e
       0.2654183 0.15631169 -0.22601551 0.26225016
0001d0 9d ce 57 3d 5a 30 04 be 52 80 82 3e df ea b3 3d
       0.052687276 -0.1290907 0.25488526 0.087850325
0001e0 17 0e a3 3d c8 2d 4c 3e a1 be 0f 3e 53 4e 2a 3c
       0.07961672 0.19939339 0.14037563 0.0103946505
0001f0 f1 8d 84 3d 5e 4f aa bc b0 c6 bd bd 0e 7e 61 3e
       0.06472386 -0.020789798 -0.09266412 0.22020742
000200 7e 46 49 3e 82 18 89 3e 19 2f 49 3e c7 ea 43 3e
       0.19655797 0.2677651 0.19646873 0.19132529
000210 40 aa 3f 3d d9 a6 0d 3e 7b 19 4f be ff b5 82 3d
       0.046793222 0.13833179 -0.20224564 0.06382369
000220 54 dc c8 bd b2 93 c8 bc 3a 15 a4 3a ac c3 8c 3e
       -0.09807649 -0.02448449 0.0012518533 0.27493036
000230 05 88 2f 3e 92 82 f7 3d f6 58 02 be 6c 32 d3 3d
       0.17141731 0.12085451 -0.12729248 0.103123516
000240 58 f8 83 3d f8 6d d5 3d a8 09 5b be 34 7c ab bd
       0.06443852 0.104213655 -0.21390402 -0.08373299
000250 a7 ad 70 be 78 6f 52 3e 24 b3 fd bd 41 32 62 3e
       -0.23503743 0.20550334 -0.12387684 0.22089483
000260 95 71 c8 bd 6f de 2a be 53 4d 76 3e 45 e0 fc bd
       -0.09787289 -0.16686414 0.24052934 -0.123474635
000270 8b b7 86 be 57 dd 3b 3c a9 59 84 bd 02 1a 93 3d
       -0.26311907 0.011466346 -0.06462414 0.07182695
000280 fc b9 22 ba 32 e1 81 be 4f 03 07 be 67 4c b3 bc
       -0.00062075234 -0.25367123 -0.13184856 -0.021887017
000290 48 2f f7 3d 67 d0 c2 bd 24 a5 84 3e 3a cc 6b 3e
       0.12069565 -0.09512406 0.25907242 0.23027125
0002a0 e0 f5 8c 3e c5 26 7a be 66 ab f9 3c a5 36 8a 3d
       0.27531338 -0.24428852 0.030477237 0.06748704
0002b0 c1 32 4f 3e 9c 47 cf 3d 0a 42 63 be 4d 00 23 be
       0.20234205 0.1012108 -0.2219316 -0.15918083
0002c0 5e 02 46 3e d8 5e 87 be ae b0 3c bc 30 63 4f 3d
       0.1933684 -0.26439548 -0.011516733 0.050631702
0002d0 12 ed 85 3e bf a5 ff 3d b3 5b 9d bd ec f6 89 3e
       0.26157433 0.124827854 -0.07683506 0.269462
0002e0 f2 6f 20 3e 4f 9f 54 3d be 2d 83 3e 5b 9c 6a 3e
       0.15667704 0.05190974 0.25620836 0.22911207
0002f0 37 94 54 be e4 4c d6 3d ad fd d7 3d a0 70 a2 bd
       -0.20759664 0.104638845 0.10546432 -0.07931638
000300 d4 e3 bd 3d 00 66 16 3e a1 58 67 be 03 76 d5 bc
       0.092719704 0.14687347 -0.22592403 -0.026057249
000310 a8 ec 2d 3e 3d 8f 79 3e 75 04 1e be d1 6b 4a 3e
       0.16984808 0.24371047 -0.15431388 0.19767691
000320 c8 eb 67 3d 6f fb 67 be ce 57 8d be 73 27 03 be
       0.056621343 -0.22654508 -0.27606052 -0.12808017
000330 c4 a3 2a be ba cc 42 3e 3f 37 65 be ee 18 46 3e
       -0.16664034 0.1902341 -0.22384356 0.19345447
000340 89 e7 23 bd 1a c2 3c be a7 c2 44 be 80 f9 39 3e
       -0.04001573 -0.18433419 -0.19214879 0.18161583
000350 59 50 fb bb 2b 4a 6f be 21 39 c1 3d 96 4e 3d 3e
       -0.0076694903 -0.23368137 0.094347246 0.1848701
000360 9e 35 03 3e ad 1d 5b 3d 30 a2 45 be f1 ec 7f 3e
       0.12813422 0.053495098 -0.19300151 0.2499273
000370 21 26 75 3e 32 35 f6 bb 44 53 23 be bc c2 21 3e
       0.23940326 -0.0075136656 -0.15949732 0.15796942
000380 ae 01 5e bd 90 c0 80 3b 7e 00 8c be e5 17 52 be
       -0.05420082 0.0039292052 -0.27344126 -0.20516928
000390 a6 be 2b bb 63 6c 25 be 56 a5 7e 3d 3d 37 87 3e
       -0.0026206165 -0.16154628 0.062169395 0.2640933
0003a0 65 82 47 be f3 0d d3 3d d9 2c 47 3e be 28 89 3e
       -0.19483335 0.10305395 0.19450702 0.26788896
0003b0 48 ff 63 3e e8 a4 8a 3d 4e f2 41 3e 59 27 5e be
       0.22265351 0.067697346 0.18940088 -0.21694697
0003c0 e7 32 7d bd 65 d0 4f bd 39 12 e3 3c 57 66 86 3e
       -0.061816122 -0.05073585 0.02771865 0.26249954
0003d0 3f 26 42 3d d6 58 76 3c e1 43 13 be 85 b2 24 3e
       0.047399756 0.015035829 -0.14381362 0.16083725
0003e0 da e1 4f be 24 83 90 bd 35 4d 17 be 38 8f 6b 3e
       -0.20301 -0.07056263 -0.14775546 0.23003852
0003f0 a6 d9 88 be 01 78 19 3e 57 46 a0 3c a1 05 cd 3d
       -0.26728553 0.14987184 0.01956479 0.10010839

trunk.0.bias f4 [128]
000000 2c b1 88 be 23 d7 42 be b7 69 b0 bd a7 57 2a 3d
       -0.2669767 -0.1902738 -0.086139135 0.041587498
000010 54 26 c3 3d 36 42 86 3d d0 72 42 3e 3c d3 38 be
       0.09528795 0.065555975 0.1898911 -0.1804933
000020 69 98 93 3d 5c 2b 44 be 01 84 72 3e 4d d8 62 3e
       0.07206804 -0.19157165 0.23683168 0.22152825
000030 99 e4 e2 3d 05 f0 aa 3c 79 89 5f bd 53 ac 5f 3e
       0.11078758 0.020866403 -0.054574464 0.2184308
000040 05 9c 71 3e a1 91 37 3e 7f 9a 15 be 21 67 87 3d
       0.23594673 0.17926647 -0.14609717 0.06611467
000050 98 f2 81 be d4 58 b9 bd 76 ea af bd b6 67 d5 3d
       -0.25380397 -0.09050146 -0.08589642 0.10420172
000060 87 e5 9f 3d 08 b3 21 be e2 f7 49 3d 51 7e 85 be
       0.07807451 -0.15790951 0.049308665 -0.26072934
000070 13 00 ec bd 4f 28 86 be ce c9 ac bd b0 3f 15 3e
       -0.11523452 -0.26202628 -0.08436929 0.14575076
000080 98 6a 2b be 7b 5b 10 be fb 8a 83 3e 7b 5e 27 3e
       -0.16739881 -0.14097397 0.2569197 0.16344635
000090 e7 aa 59 be 75 25 5a 3e 83 1b 2b 3e e7 9b a0 bc
       -0.212566 0.21303351 0.16709714 -0.01960559
0000a0 e3 92 8b 3e 84 70 ea bd 0c 7c 37 3d cd d5 0a 3e
       0.27260503 -0.11447242 0.044796035 0.13558121
0000b0 43 5f 68 3d 75 c5 74 3e 5c 00 78 3e 41 03 83 bc
       0.056731474 0.23903449 0.24218887 -0.015992763
0000c0 b4 7a 5f 3e fe 3a 72 be ac ec 32 be 82 b0 77 bd
       0.21824151 -0.23655316 -0.17473096 -0.060471065
0000d0 97 01 62 be 0e ac d0 bd ff 1a 5e 3e 34 91 d3 bb
       -0.22070919 -0.10189067 0.21689986 -0.0064565185
0000e0 c6 07 4c 3e 0d bc 2a be ba da 37 bc 48 e6 31 be
       0.1992484 -0.16673298 -0.011221582 -0.17373002
0000f0 91 79 c0 3d 37 66 c7 bc e3 6d ab bd 18 fe 19 3d
       0.09398187 -0.024340732 -0.083705686 0.03759584
000100 af b8 ba 3d 06 e0 2b be 3c d6 1d 3e a7 ef 80 3e
       0.09117257 -0.16784677 0.15413755 0.2518284
000110 82 b0 18 3d 3e 5e 37 be d7 a6 6c be f7 87 8d 3e
       0.037277706 -0.17907044 -0.2311052 0.27642795
000120 48 05 0f 3e ad 13 7e 3e 24 43 53 be 3a fb f0 bd
       0.13966858 0.24812193 -0.20631081 -0.11766668
000130 60 e7 51 be bc c2 86 be 99 60 02 3e 6e fc 80 be
       -0.20498419 -0.26320446 0.12732162 -0.2519259
000140 2a 59 25 3e c2 28 73 be 27 21 df 3c 01 74 4c 3e
       0.16147295 -0.23746017 0.027237488 0.19966127
000150 88 35 25 be 63 8e 59 be 18 03 84 3e 87 3a 81 3d
       -0.16133702 -0.21245722 0.2578361 0.06309991
000160 9a ad ea 3d 64 e7 e2 3d 75 82 57 be 4b 25 2f be
       0.11458893 0.110792905 -0.21045859 -0.1710407
000170 1c f9 04 be f0 34 ac bc b8 7f 8b 3d dd 6d 8d 3e
       -0.12985653 -0.021021336 0.0681147 0.27622882
000180 0f b0 8b 3e 0d f0 e0 3d a0 26 60 3e 8d 35 f5 bd
       0.2728276 0.10983286 0.21889734 -0.119731046
000190 75 da 1a be ae 11 29 3e be fe 22 3e c1 d3 4b 3e
       -0.15122397 0.1651065 0.15917489 0.19904996
0001a0 a6 c6 60 be e2 5d 08 3d 6b de e1 3d e8 f7 7a 3d
       -0.21950778 0.03329266 0.11028751 0.061271578
0001b0 7b 1b 32 3e 1d d7 89 3e a7 31 dd bd d3 38 59 3e
       0.17393295 0.2692193 -0.10800486 0.21213083
0001c0 fd c5 31 3e 05 ab 88 bd 6b 7c e8 bd 10 ba fc 3d
       0.17360683 -0.066732444 -0.11351856 0.12340176
0001d0 98 1f 27 3e d5 a6 1f 3e 4d 0d 45 3e eb ed 12 3e
       0.16320646 0.15590985 0.19243355 0.14348571
0001e0 ae 4b 19 be 6c 9d 45 bd e9 25 9d 3b f2 38 ef 3d
       -0.14970276 -0.048245832 0.004795779 0.11680783
0001f0 e7 90 57 3e 81 04 83 3a 8a 45 7e 3e 04 a2 26 be
       0.2105137 0.0009995849 0.24831215 -0.16272742

trunk.3.weight f4 [128, 128]
000000 7f f1 e8 bb 85 ac 80 3d e1 2b 87 bd 5a 8f 7b 3c
       -0.0071088667 0.062829055 -0.06600166 0.015354002
000010 b4 6b 78 3d d9 43 18 bd a0 e9 b0 bd 8b 38 a7 3d
       0.06064959 -0.03717408 -0.086383104 0.081650816
000020 d4 df 7f bd 6a 0b a9 3d a2 fb 99 3d 91 f2 3a bd
       -0.06246932 0.0825413 0.07518698 -0.045641486
000030 be 2e 29 bd 04 4c 24 3d 3b 1f a7 bd 13 dd 0a 3d
       -0.041304342 0.040111557 -0.081602536 0.03390224
000040 88 15 b3 3b 61 34 16 3d 27 95 42 bd ae 23 f1 3c
       0.005465213 0.036671046 -0.047505524 0.029435959
000050 cf e4 36 bc e2 76 63 3d 91 71 ee bc 06 ef 74 bd
       -0.011162951 0.055533297 -0.029106887 -0.059798263
000060 84 af 35 bd 00 61 e4 3a ca 65 20 bd c7 ef 74 bd
       -0.044356838 0.0017423928 -0.039159574 -0.059798982
000070 7a e1 b2 bd b4 79 99 3d ca 3b 94 bd 6d d4 98 3d
       -0.087344125 0.07493916 -0.07237966 0.07462392
000080 da e8 87 3d a9 13 30 bd e9 b9 ab 3c c2 73 7e 3d
       0.0663621 -0.0429875 0.020962672 0.062122114
000090 4c 93 96 bd d0 82 59 bd 14 21 9f 3d 61 31 56 bd
       -0.073523134 -0.05310327 0.07769981 -0.052293185
0000a0 a7 a6 60 bd 5b ce 84 bd e1 9e 96 bd e4 2d 27 bd
       -0.054846432 -0.06484672 -0.073545225 -0.04081525
0000b0 f1 3e 44 3d a5 d9 99 3d 9f ba 1e 3d 3f 8f 15 3d
       0.047911588 0.075122155 0.038752194 0.036513563
0000c0 64 67 16 bd cc ea b3 3d be 8b b9 3c 33 d9 21 3d
       -0.036719695 0.08785018 0.022649642 0.039513778
0000d0 a3 52 25 3c b4 49 59 3d 31 12 d1 3c c3 64 0d 3d
       0.010090503 0.053048804 0.02552137 0.034519922
0000e0 21 6b b2 bd 68 bb 90 3d 02 2f 12 3c 61 b5 ef bc
       -0.087118395 0.07066995 0.00892234 -0.029261293
0000f0 33 83 86 3d 11 4c 92 bd 1a 34 18 3d b1 33 96 3c
       0.06567993 -0.07143415 0.037159063 0.018335195
000100 8d 4f ac bc ba 01 e7 bb c8 97 51 bd eb 43 04 3d
       -0.021034027 -0.0070497664 -0.05117014 0.032291334
000110 eb e9 f0 bc b3 a8 ff bc 78 32 ce bc 71 9f 44 bd
       -0.029408416 -0.031208372 -0.02517055 -0.048003618
000120 48 56 9c bd 16 41 91 3d 0a 2d b3 bd 12 10 60 3d
       -0.07633644 0.07092492 -0.08748825 0.054702826
000130 c5 9c 82 bd 92 8d a3 3d 48 2a 9a 3d 5d 18 3f bd
       -0.06377558 0.07985987 0.07527596 -0.046654094
000140 e3 47 de 3b cf 5b 64 3d 6e c9 b1 3d 67 e2 ad 3c
       0.006783472 0.055751618 0.08680998 0.021226121
000150 a9 ce 9b bd a7 9c ab 3d ca ac a7 bd 81 3d ab 3c
       -0.07607777 0.083794884 -0.08187254 0.02090335
000160 3e aa 79 3d 33 88 b2 bc 1d e7 46 bb 2f 3e 52 3c
       0.06095337 -0.02179346 -0.0030350157 0.012832209
000170 63 aa a8 bd bd 70 d7 bb 87 0e 44 3c 6b 9c 2c bd
       -0.08235624 -0.0065747187 0.011966354 -0.04214136
000180 0f b0 8d 3d 19 f4 58 3c e9 4a 96 3d 5e 07 9d bd
       0.06918346 0.013241791 0.07338507 -0.07667421
000190 88 1d 5f bd 95 bb 4e bd 74 06 fc bc a8 a8 a2 bc
       -0.054471523 -0.05047186 -0.030764796 -0.019855812
0001a0 90 75 9e bd 85 e2 50 bd ba fe ae 3c f1 3f 84 3d
       -0.07737267 -0.050997276 0.021361697 0.06457508
0001b0 ea 68 9c 3c 9b 62 77 bc 78 c2 30 bd cd 71 61 bd
       0.019092996 -0.015099193 -0.04315421 -0.05504017
0001c0 aa 36 86 3d 6c 10 9c bd 80 55 80 3d 4c d8 65 3c
       0.06553395 -0.0762032 0.06266308 0.01402862
0001d0 cf f2 94 3d e1 d3 fe bc bd 20 54 3d 33 7f 59 3d
       0.072728746 -0.031106891 0.051789034 0.053099822
0001e0 89 bb fd bb c8 8a 81 3d 5f 3c ae bd 73 83 60 3c
       -0.007743303 0.063252985 -0.085076086 0.013703215
0001f0 38 52 a3 bd b3 56 bf bc 3b 47 52 bd a1 23 e6 3c
       -0.07974666 -0.023356771 -0.051337462 0.028093161
000200 7c c3 af bd db bf 29 3d b0 e7 a0 bd fa ca 23 bd
       -0.085822076 0.041442733 -0.07856691 -0.039988495
000210 87 4b 8b bd 85 53 15 3c be 52 76 3d f6 c7 47 bd
       -0.06801515 0.009114151 0.060137503 -0.048774682
000220 4b af b1 bc b8 74 9c bd ef eb d6 bc c1 83 09 3c
       -0.021690032 -0.0763945 -0.026235549 0.008393229
000230 0a dd a9 bd 13 ae 5c 3d 30 0d 8c 3c 34 42 76 3d
       -0.08294113 0.053876948 0.017096132 0.06012173
000240 b2 27 a2 3d 3f fe 03 bd c2 b5 2d 3d eb 1f 8c 3d
       0.079177275 -0.03222489 0.042409666 0.06842025
000250 17 fc e2 3b 80 19 df bc 23 a1 19 bd b0 fb 86 bc
       0.006927024 -0.027233839 -0.037507188 -0.016477436
000260 18 a6 a1 3d 57 d9 75 3d 0d c6 14 3c a6 91 94 3d
       0.07893008 0.060021725 0.009080422 0.07254343
000270 af 7f 10 3d 5e 52 37 3c a1 6f b4 bd 6b 22 00 3d
       0.03527802 0.011189071 -0.08810354 0.031282824
000280 06 41 ac bd 35 f5 14 3b 26 8f 95 3d ff 7b a2 3c
       -0.0841084 0.0022729163 0.07302694 0.019834517
000290 d8 92 87 bd 9e 55 19 3d dd 81 05 3d 38 ae 89 3d
       -0.06619805 0.037435167 0.03259455 0.06722683
0002a0 72 17 1e 3d d7 8b 09 3c 0a de 01 ba c9 1d 9c bc
       0.038596578 0.008395157 -0.0004954046 -0.019057171
0002b0 c7 7a 25 bd 0c 77 35 3d d6 24 e7 3c 52 31 b9 3c
       -0.040400293 0.044302985 0.028215807 0.022606526
0002c0 01 92 2f 3b 6c 53 21 bd 8c e9 95 3d fa 8e 93 3d
       0.0026789906 -0.039386198 0.07319936 0.07205005
0002d0 4c e6 97 bd 08 e6 63 3d ed 0c a3 3d d4 8f 0b 3d
       -0.074169725 0.055639297 0.0796145 0.034072712
0002e0 74 57 7e bc a1 61 9c bd bd cb c5 bc d4 03 0a 3d
       -0.01552378 -0.07635809 -0.024145002 0.033695057
0002f0 8f 5e 38 bd a0 c1 92 bd 16 26 06 3d 30 66 8c bd
       -0.045012053 -0.07165837 0.032751165 -0.06855428
000300 4b 6e 66 bd f7 c5 88 bd c1 9d 2c 3c 69 3d 9a bd
       -0.056257527 -0.06678384 0.010535658 -0.07531244
000310 d8 07 af bd 10 2a dd 3c f9 4e 9b 3d f6 09 60 3c
       -0.08546418 0.026997596 0.07583422 0.01367425
000320 3a d2 53 bd 0d 6b a5 bd 6c c9 38 bd 7e 7d a8 bd
       -0.05171416 -0.08077059 -0.045113966 -0.08227061
000330 b1 b6 43 bd 79 d8 b4 3d da 71 e2 bc 13 60 ec 3a
       -0.04778165 0.088303514 -0.02764218 0.0018034003
000340 fd 6e e0 bb 52 08 48 3c 54 03 3f bd 0e f6 34 3d
       -0.0068491683 0.012209015 -0.046634033 0.04417997
000350 77 9c 8c 3d d3 31 03 3d e9 ae 3d bd a7 8a 99 bc
       0.06865781 0.032029938 -0.046309385 -0.018742872
000360 4e ef 7e 3b 5b 41 2a bb 59 53 14 bd f4 56 96 bd
       0.003889996 -0.0025978896 -0.0362123 -0.07340804
000370 41 88 56 3d 7e 84 35 3c 51 e3 82 ba fa 1c a7 3d
       0.052376036 0.011078952 -0.0009985958 0.08159824
000380 8d 80 0d bb 3d cb 1e bd 36 ff 52 3d c0 02 af 3d
       -0.0021591515 -0.038768042 0.05151292 0.085454464
000390 7a f7 61 bc 0c a6 53 3d 5f 97 ab 3c 46 5c f5 bc
       -0.013791913 0.051672027 0.020946203 -0.029951226
0003a0 6d 52 b4 3d e0 bd a4 bd 8e 92 4f bd 2c f1 89 bd
       0.08804784 -0.08044028 -0.050676875 -0.06735453
0003b0 c0 c1 9a bd d6 76 1a 3d 3a af 18 3c 3c a1 6f 3d
       -0.07556486 0.037710987 0.009319121 0.058503374
0003c0 a8 eb 26 bd 80 69 6a 3c a7 5b cf bc f5 fb 66 3d
       -0.040752083 0.01430738 -0.025312258 0.05639263
0003d0 20 77 ca bc 55 39 e1 bc 4f 92 eb 39 37 d2 1b bd
       -0.024715006 -0.027493158 0.000449317 -0.038042273
0003e0 7d b5 12 bc 37 81 aa bc ca fb b1 bd a0 31 91 bd
       -0.008954403 -0.020813568 -0.08690603 -0.07089543
0003f0 01 b2 48 bd d3 f4 9a 3c 53 c8 41 bd 6f b5 a5 3c
       -0.048997883 0.01891557 -0.047310185 0.020228116

trunk.3.bias f4 [128]
000000 8f e6 a0 3c 53 2f 32 bc 90 41 5d 3d 55 1f 46 bd
       0.019641189 -0.010875541 0.054017603 -0.048369724
000010 b0 9a 2b bd 99 1b b1 3d fd 15 83 3d 5d 25 98 3d
       -0.04189557 0.08647842 0.06400678 0.074290015
000020 cf 6e e5 bc 64 ed ac bb 32 62 cf 3c 9f cc b0 bc
       -0.02800694 -0.0052773226 0.025315378 -0.021581946
000030 d7 8c 08 3c 0d ee 98 bd 5d eb 16 bd 13 51 a9 3d
       0.00833436 -0.074672796 -0.036845554 0.08267417
000040 bd 3e 92 bc 81 18 f0 3c 0b b9 67 3d 4b a0 4a bd
       -0.017852182 0.02930856 0.056572955 -0.049469274
000050 02 c0 92 bd c8 f4 e1 bc 55 7c 28 bd f2 46 17 bd
       -0.07165529 -0.027582541 -0.041134197 -0.036932893
000060 1f f8 84 b9 5f bf 72 bd 7e 44 81 bd c9 ce 8f 3d
       -0.00025361867 -0.059264537 -0.06311892 0.07021863
000070 59 9d 6f bd db dd 52 bd a1 27 b2 bd bb db 98 3b
       -0.058499668 -0.05148111 -0.08698965 0.004664866
000080 6b c8 9c 3d 9d 19 da 3c a5 32 9d bd 61 1a 32 bd
       0.07655414 0.026623541 -0.07675675 -0.043482188
000090 90 6d 92 bc d3 6c cb 3c c1 68 06 3d c9 27 ff bb
       -0.01787451 0.024832165 0.032814745 -0.007786725
0000a0 03 d4 ab bd 0d 33 62 bd 9c 7f 09 3d f2 1b 1b 3d
       -0.083900474 -0.055224467 0.033568963 0.037868448
0000b0 df 78 94 3d 69 8f 67 3b 36 7c 9d bd 82 a5 97 bc
       0.07249617 0.0035333282 -0.07689707 -0.018511537
0000c0 1e 0d 84 3d bb 3b 0f ba 76 77 b4 3c 2c ac 76 3c
       0.064478144 -0.00054639176 0.02202962 0.015055697
0000d0 4a 63 01 3d 93 0f 90 3c 01 07 ec 3c 4f d0 9f bd
       0.03158883 0.017585551 0.028811933 -0.078034036
0000e0 41 13 66 3c 20 35 da 3c be f2 3c 3d e4 e3 b0 3d
       0.014042676 0.02663666 0.046129934 0.08637217
0000f0 69 1c e9 bc ef c0 a3 bd 8d 06 48 3a ba 56 ad 3c
       -0.02845593 -0.079957835 0.00076303707 0.021159519
000100 b2 a1 c4 3b d3 16 ec bc 93 a0 4f bd f1 81 8d bc
       0.006000721 -0.028819477 -0.050690245 -0.017273875
000110 31 70 b1 3d bf f4 59 3d c4 3c ac bd ab bc 5a bd
       0.08663977 0.053211924 -0.084100276 -0.053402584
000120 4a 3d c7 bb 77 cc 89 bd ba 81 a5 3c 65 77 a3 bd
       -0.0060803043 -0.06728452 0.02020346 -0.07981757
000130 dc d3 e9 bb 78 de 90 3d 59 69 35 bd 03 8f 9e 3d
       -0.0071358513 0.070736825 -0.04428992 0.07742121
000140 a1 40 9f 3d c8 1d 66 3d 5b 2d 95 3c 00 d8 3b bd
       0.07775999 0.056180745 0.018210104 -0.04586029
000150 e3 37 1f 3d 55 a0 a8 3d 67 8f b2 3c 6f ff 06 3d
       0.038871657 0.08233706 0.021796895 0.032958444
000160 97 76 21 bc e5 30 8d bd fd 88 2f 3d be 9a 29 3d
       -0.009854934 -0.068940915 0.04285525 0.04140734
000170 f8 3a d8 bb 42 f7 ae bc b0 79 9c bb 53 65 86 bd
       -0.0065988265 -0.021358136 -0.0047752485 -0.06562295
000180 f0 d0 8f bd 23 9f ae 3c 35 54 0e bd 33 a8 83 3c
       -0.070222735 0.021316117 -0.034748275 0.016071415
000190 e6 ed e7 bc 39 2a 4b 3c d2 a7 84 bd b3 dc 0e 3d
       -0.028311681 0.012400203 -0.06477322 0.034878444
0001a0 11 c6 42 bd dd d7 e4 3c 04 fb 43 bd 6a 8d b6 3c
       -0.047552172 0.027934963 -0.04784681 0.022284228
0001b0 dd 02 74 3d 09 0e 99 3d 1c c7 a1 3c 1d 78 84 bc
       0.059573043 0.0747338 0.019748263 -0.016170556
0001c0 53 b0 91 bd 8e 85 b5 bb 6d f1 b2 bd b8 ea 9e 3d
       -0.07113709 -0.0055396026 -0.087374546 0.07759613
0001d0 d8 69 18 bd ca fe 89 bd e1 88 1c 3d 9f 6e 32 bd
       -0.037210315 -0.0673805 0.038216475 -0.043562528
0001e0 ca 56 88 38 68 25 40 3d b4 28 e3 bc c8 7d 45 3b
       6.501151e-05 0.046910673 -0.02772937 0.0030134786
0001f0 db 63 86 bd 58 13 d5 3c 8d 44 8d bd d8 08 5a bc
       -0.06562015 0.0260102 -0.06897841 -0.013307773

trunk.6.weight f4 [64, 128]
000000 f2 8a 9c bd ae 9b 80 bd a8 1d 74 3d c8 c1 94 bd
       -0.07643689 -0.062796935 0.059598595 -0.07263523
000010 eb 54 4e bc 88 02 65 bd ee 6e 28 3d eb 60 5f 3c
       -0.012593488 -0.055910617 0.041121416 0.013633947
000020 c6 5a a4 3c 8f 0d 91 3c 41 c5 60 bd ff 17 af bd
       0.020062815 0.01770666 -0.054875616 -0.08549499
000030 c9 21 1c 3c 26 97 19 bd ad 27 cc ba 98 17 a1 bc
       0.009529539 -0.037497662 -0.0015575789 -0.01966457
000040 b0 6b a7 bd 90 09 6d 3c ae 37 9f bd a4 9f 65 bc
       -0.08174837 0.014467612 -0.07774292 -0.014015112
000050 2a f0 ad bd e4 f8 cc 3c 7a 03 9a 3c 5d bc 38 3d
       -0.08493073 0.025021024 0.018800486 0.045101512
000060 03 0c a4 bd 3f 86 1f 3c 65 28 54 3d 6e 7f 94 bd
       -0.080101036 0.009736597 0.051796336 -0.07250868
000070 bb e3 d3 3c 59 a0 1c bd 2a 09 ed 3b 58 d2 ac bd
       0.025865426 -0.038238857 0.0072337585 -0.084385574
000080 99 eb 9f 3d c5 fb 1f 3d f7 a3 30 bd 58 b7 ac bc
       0.078086086 0.039058466 -0.04312512 -0.021083519
000090 aa 3f 52 3d 20 e0 f9 3c af 26 50 3b 86 09 ce 3c
       0.051330246 0.030502379 0.0031761338 0.025151026
0000a0 dd fa 3c 3d 4c 0d 90 3c 1f ff 87 3d 35 73 2a 3b
       0.04613768 0.017584465 0.06640457 0.002600861
0000b0 f5 7f 2e bc 5f e1 28 3d 26 54 83 bd 70 3b 96 bd
       -0.0106506245 0.041230556 -0.064125344 -0.073355556
0000c0 b0 3c 85 3c 9c 82 89 3d 7f 73 0a bd 3e df 8c bc
       0.01626429 0.06714365 -0.033801552 -0.017196294
0000d0 2f 77 08 bd 7e 76 ab 3d fd a8 8b 3d 9f 3c 8b 3d
       -0.033316787 0.0837221 0.06819341 0.06798672
0000e0 28 75 ae bd 4b 4d 7b 3d 86 3a 99 3d 0f 89 19 3d
       -0.085184395 0.06135301 0.074818656 0.037484225
0000f0 b7 18 6a b8 ff 44 b3 bd be 43 9d 3c 24 b6 b6 bc
       -5.5812965e-05 -0.08753394 0.019197341 -0.022303648
000100 17 3a ab bd 63 23 ae 3d 9d 8b 0a bd db f6 ae 3d
       -0.08360689 0.08502843 -0.03382455 0.08543178
000110 75 0f b3 3d f1 77 9d bd 24 27 12 3d e6 c1 d3 bb
       0.087431826 -0.07688893 0.03568186 -0.0064623235
000120 43 d9 b3 bd fb b8 4f 3d 28 84 9a bd d7 97 6e bc
       -0.08781674 0.05071352 -0.07544738 -0.014562569
000130 f6 99 59 bc 51 00 25 bd 10 dc be 3c ea 6a 40 bd
       -0.013281336 -0.040283505 0.023298293 -0.04697696
000140 e4 bd 1e 3d 3b 95 6e bc 88 e5 bc 3c 73 c9 17 bd
       0.038755313 -0.0145619465 0.023058668 -0.03705735
000150 54 85 34 3d 16 74 88 3d ca af 92 bb aa 69 91 3d
       0.044072464 0.06662767 -0.004476522 0.07100232
000160 07 1e b3 bd 1f cc af 3c 74 5d 8a ba 0c a3 ed bb
       -0.08745962 0.021459637 -0.0010556416 -0.0072521027
000170 fe 05 eb bc 7e ec 1e bc 07 87 f1 3c 1f 4e 89 bc
       -0.02868938 -0.009699939 0.029483331 -0.016760884
000180 35 ad 9d bd 8e 49 62 bd bb 12 95 3b 79 12 f8 3c
       -0.07699052 -0.05524593 0.004549352 0.030282246
000190 0a f5 69 bd d7 1a 88 bc 72 e9 e5 bb 4f eb 86 bd
       -0.057118453 -0.01661436 -0.0070163542 -0.0658785
0001a0 f2 38 7a bd 5a 53 a4 bc d7 c3 41 bd bf da 92 ba
       -0.061089464 -0.020059276 -0.047305908 -0.0011204107
0001b0 9c 83 b3 3d 99 63 83 3d cb 31 b1 bd c1 a6 42 3d
       0.08765337 0.06415481 -0.086520754 0.04752231
0001c0 73 e3 8e bc 1c af a5 bd f2 c9 a4 bc 51 8c 52 3c
       -0.01744244 -0.0809004 -0.020115826 0.012850837
0001d0 b0 27 90 3d a6 74 e8 bc 31 55 ab 3d cf ba 8f 3c
       0.0703882 -0.028375935 0.08365858 0.017545132
0001e0 61 a8 d7 bc 4c dd 77 3d ef 54 8c 3d 40 18 61 3d
       -0.026325407 0.06051378 0.06852137 0.054954767
0001f0 17 95 b4 3d f6 6e a2 bd 76 69 52 bd f7 92 14 bd
       0.08817499 -0.0793132 -0.051370107 -0.03627297
000200 2a 93 9e 3d ed fe d8 3c 0a 47 1c 3b 8d 93 44 bd
       0.07742913 0.026488746 0.0023846054 -0.047992278
000210 c7 a7 9e 3d 2a 71 6d bd f4 70 85 bd 8e 5e 56 ba
       0.07746845 -0.05796925 -0.06515685 -0.0008177542
000220 7b bd d3 3c 92 cd 5f 3d cb dc 5f 3c e4 47 e6 bc
       0.025847187 0.054639407 0.013663481 -0.028110452
000230 aa fa 5a bd 13 11 ad 3d 20 cc 13 3d 90 39 26 bd
       -0.053461708 0.08450522 0.03608334 -0.04058224
000240 b9 69 0f bd 89 75 df 3c 66 27 5d bd 0c ab 41 bd
       -0.035012934 0.027277725 -0.05399265 -0.047282264
000250 f0 8e fe bc 0e ba 89 bd 16 94 1b bd 02 c6 d7 3c
       -0.031074017 -0.0672494 -0.037983023 0.026339535
000260 76 e6 0d bc e5 2c 75 3d f9 19 14 3d 47 53 47 bd
       -0.008660903 0.059857268 0.036157582 -0.048663404
000270 5b 07 98 3d 43 b1 9a 3d 43 e4 74 3d 3d 2b 87 3d
       0.07423278 0.07553341 0.059788 0.06600044
000280 36 d5 14 3b 7a 60 83 bd ea b3 93 bb 67 b5 a4 bd
       0.0022710091 -0.06414886 -0.0045075314 -0.08042412
000290 ea 0a c6 3c b6 3f 8d bd 79 91 85 3c 41 c0 1e bc
       0.024175126 -0.068969175 0.016304718 -0.009689392
0002a0 31 ac 9e 3d a7 22 8d 3d da 44 3e bd c8 26 41 bc
       0.07747687 0.06891375 -0.04645238 -0.011789031
0002b0 90 3c 49 3d 84 ed 9e bd f4 d6 2a bd 90 d6 93 3c
       0.049130023 -0.07760146 -0.0417089 0.018046647
0002c0 52 ac 44 bd a7 3e 92 3d c4 95 c7 bb 28 5e a0 bc
       -0.0480159 0.07140856 -0.0060908515 -0.019576147
0002d0 ae c1 31 bc d8 6f 74 3d 2a a7 a5 3d 7e e3 02 3c
       -0.0108493995 0.059676975 0.08088525 0.007988809
0002e0 c4 d2 97 3c cf 6a 58 3d 54 dc 48 3d b2 b4 16 bd
       0.018533118 0.052836236 0.049038246 -0.03679342
0002f0 bc 19 95 bc 45 85 ac bd db d7 65 3c 4c 6e 35 3d
       -0.018200748 -0.08423857 0.014028515 0.04429464
000300 80 9c 5d 3d 10 1c 8b 3c 15 8c a9 bd 9f 49 7e bc
       0.05410433 0.016981155 -0.08278672 -0.015520482
000310 90 2d ad 3b 2c 4f f0 bb 03 56 5f bd 25 52 33 bd
       0.0052849725 -0.007333657 -0.054525387 -0.04377951
000320 8d 10 24 3c aa 51 ae 3c 6f 81 91 bc 29 70 a5 bd
       0.010013712 0.021279175 -0.017761914 -0.080780335
000330 14 8f 33 bd 2d c3 ae bb 1e 0b 83 3d 3c 98 31 bd
       -0.04383762 -0.0053333254 0.06398605 -0.043358073
000340 e9 22 81 3d 3f 9c 14 bd 7e d5 d4 3b 1a bf a7 bc
       0.06305487 -0.03628182 0.006495177 -0.020476867
000350 62 c9 8b 3d 25 bf cd 3b e2 c9 73 bd ed 9e 08 3d
       0.0682552 0.0062788897 -0.059518702 0.03335469
000360 6c 83 b3 bd 02 d8 80 bd 50 0f ca 3c 35 e8 4a bd
       -0.08765301 -0.062912 0.024665505 -0.049537856
000370 ae 87 a9 bd 3c 2e 90 bd d5 20 10 39 c2 8e d9 bc
       -0.08277832 -0.070400685 0.00013745141 -0.02655733
000380 19 22 02 3c 0a b8 0c bd 81 4c ac 3d be 13 b0 bd
       0.0079427 -0.0343552 0.084130295 -0.085975155
000390 54 bd b4 bd 19 cf e7 3c 0a d4 94 bc da 62 4e bd
       -0.08825174 0.028296994 -0.018167514 -0.05038724
0003a0 2e 55 55 bd 2c 6a a7 bd 1b 3d 9a bb 87 67 82 bc
       -0.052083187 -0.081745476 -0.0047069914 -0.015918506
0003b0 e4 31 3c 3d 28 20 32 3d de f4 0b 3d 72 3f 91 bd
       0.045946017 0.043487698 0.03416907 -0.07092179
0003c0 b0 8a 49 bd 56 5c ed 3b ac 82 8d 3b 39 fd 3f bc
       -0.04920453 0.0072436733 0.004318556 -0.011718088
0003d0 14 e5 b2 3d 8d 97 6e bd 8e 9a 25 bd b8 7a 80 ba
       0.087350994 -0.05825 -0.040430598 -0.0009802198
0003e0 3d 7b 41 bb 2c c0 ba bc 75 a0 8d 3b c2 2b 4b bd
       -0.0029522919 -0.022796713 0.0043221065 -0.049602278
0003f0 ce 05 43 bc c6 dd 6a bd 8a c5 9c 3d 09 ca 63 3b
       -0.011903239 -0.057340406 0.07654865 0.0034757874

trunk.6.bias f4 [64]
000000 be 29 90 bd 24 66 2d bd 41 59 43 3d 2f d7 83 3d
       -0.07039212 -0.042333737 0.04769254 0.064375274
000010 83 9a 46 3d fe 8b 66 bd 94 48 b3 bd 8f 15 e9 bb
       0.048487198 -0.05628585 -0.087540776 -0.0071131657
000020 76 d1 93 bd 62 21 b3 bd 7e ec a2 3c b8 ec f1 3c
       -0.07217686 -0.08746602 0.019888159 0.029531822
000030 df 44 a9 3c 28 b3 b2 bd fd ba 81 bd 8c 04 90 ba
       0.020662723 -0.087255776 -0.06334493 -0.0010987683
000040 94 46 a1 bd 0a 70 a2 bd dd d1 1a bb b2 8e 69 3c
       -0.0787479 -0.07931526 -0.0023623623 0.014255213
000050 f4 81 8a bd 74 a9 96 3d 0d e5 71 3d b4 2e 5f bd
       -0.06763068 0.07356539 0.05905633 -0.0544879
000060 df 2d 46 3d 92 61 22 bc 85 6d 55 bc 05 53 96 bd
       0.04838359 -0.009910958 -0.0130266 -0.073400535
000070 79 29 90 3c 9c ae 03 3b 7e 39 60 3d a7 7c 6f 3d
       0.0175979 0.002009309 0.05474233 0.058468487
000080 d4 c4 af 3c e6 87 e7 3c aa 62 8b 3c 8a 39 0d bd
       0.02145616 0.028263044 0.01701482 -0.0344787
000090 cd 70 94 bb 3d 7d 32 39 a0 1d 04 ba 04 b9 90 bc
       -0.0045300485 0.00017022058 -0.0005039815 -0.017666347
0000a0 79 04 ab bc 9b 4e 9f bd 48 fe c4 bc a0 55 40 3d
       -0.020876156 -0.07778665 -0.024047032 0.04695666
0000b0 ab 3b 89 bd 31 52 a1 3d 57 b4 fb 3b 1f c7 34 3d
       -0.06700834 0.07877005 0.0076814103 0.04413521
0000c0 c4 72 ba 3a 80 d4 54 bd 77 3a e8 3c 89 b5 05 3d
       0.0014224877 -0.05196047 0.02834819 0.03264383
0000d0 d2 52 a6 3d 9c 93 00 bd 64 3b cf 3c 59 d2 12 3c
       0.081212655 -0.03139077 0.025296874 0.008961284
0000e0 de d4 e6 bc 86 65 68 3d 5e 84 cd bb 90 52 7f 3c
       -0.028177675 0.056737445 -0.006271883 0.015583649
0000f0 e6 bb 92 bc a5 ac 88 3d c7 f3 eb 3c 72 53 73 bd
       -0.017911863 0.06673554 0.028802766 -0.05940575

impact_head.net.0.weight f4 [64, 64]
000000 82 fb e3 bd 8e 12 cf bd 6c 85 28 bd 76 ae c7 3d
       -0.11131956 -0.10110961 -0.041142866 0.09750073
000010 f6 81 fc 3d 80 a8 89 bb 1c 6f 3b bd 78 89 ff 3c
       0.123294756 -0.004200995 -0.04576026 0.03119348
000020 66 4e a4 bd 80 e7 28 3b 10 c9 ac bd a6 cc da 3d
       -0.08022766 0.002577275 -0.08436787 0.10683565
000030 0e 92 c0 bd 78 c9 9e 3d 00 03 6f bb 20 4f f3 3c
       -0.09402858 0.07753271 -0.0036470294 0.029700816
000040 5a ac 90 3d b6 bd 9e bd 28 a6 f7 3d 42 5b bd 3d
       0.070641235 -0.07751028 0.12092239 0.09245922
000050 40 da 19 bb fe 96 c6 bd 20 1a 5b 3c 30 c2 2e bd
       -0.0023476034 -0.09696768 0.013372928 -0.04266566
000060 7c 18 2d 3d 7c 16 e0 bd 1c 18 94 bd c0 a2 26 bb
       0.04225968 -0.109417886 -0.07231161 -0.0025426596
000070 e8 88 fb 3d fc 46 67 bd 78 f9 f3 bd 58 57 a2 bc
       0.12281972 -0.05646418 -0.11912817 -0.01981704
000080 ec f4 fb 3d 4c 79 3b 3d 64 01 ba 3d e0 7d e8 bc
       0.123025745 0.045769975 0.090822965 -0.028380334
000090 36 43 ed bd b2 f4 be 3d 60 c0 1b 3c 48 50 a2 3d
       -0.11585085 0.09324016 0.009506315 0.07925469
0000a0 30 95 d2 bc 8c 79 38 3d 38 7d c1 bd 54 81 14 3d
       -0.025705904 0.04503779 -0.09447712 0.03625615
0000b0 80 b9 bd 3d 54 d8 1b bd a8 3e f7 3d 18 ba 10 bd
       0.09263897 -0.038048103 0.120724976 -0.035333723
0000c0 20 c4 44 3d 54 4e a3 3d 4c 72 37 3d e0 fa d1 bd
       0.048038602 0.07973924 0.044786736 -0.10252929
0000d0 ea 9a 85 3d ee bb 96 3d fc 17 e7 3d c0 0a 57 bc
       0.06523688 0.073600635 0.112838715 -0.013125122
0000e0 b2 3f eb bd 84 3b 22 bd 6c 0e a1 bd 10 f0 c9 bc
       -0.11486758 -0.03960754 -0.07864079 -0.024650604
0000f0 00 21 c0 3a 10 25 7e bd 80 ef d6 3d 68 c3 dd 3c
       0.0014658272 -0.062047064 0.104949 0.027070716
000100 16 ff ea 3d 20 d0 79 3c 3e fc e6 bd 9c 10 dc bd
       0.11474435 0.015247375 -0.1127858 -0.107453555
000110 38 5a ef 3d 1c d0 69 bd 60 68 cd bb b0 20 ae 3d
       0.1168713 -0.057083234 -0.006268546 0.085023284
000120 aa 3f bd 3d 50 b9 13 bd f2 b5 f2 3d 4c d8 f0 3d
       0.092406586 -0.0360654 0.118511096 0.11760005
000130 00 27 b1 bb 90 e8 c3 bd 80 3c 21 bd 70 46 05 bd
       -0.0054062605 -0.09565842 -0.039364338 -0.032537878
000140 0e f2 c5 bd aa 35 d8 bd d6 12 f8 bd 5c 2a 21 3d
       -0.09665309 -0.105571106 -0.12112968 0.039347038
000150 56 39 9e 3d fe 71 a6 3d b0 32 ea 3d 7a bd b9 bd
       0.0772578 0.08127211 0.11435449 -0.09069343
000160 80 32 72 bb 00 95 eb 3d 24 0b 43 3d 80 35 fd 3c
       -0.003695637 0.11503029 0.047618046 0.0309093
000170 ea d6 e9 3d 00 f6 d3 3a 00 82 61 bb da 7e 8f 3d
       0.11417945 0.0016171336 -0.0034409761 0.07006617
000180 b0 be 81 bc 40 72 1c 3c 20 be d8 3b b2 24 cc bd
       -0.015837997 0.009548724 0.0066144615 -0.099679366
000190 5e 1a cd bd 30 7a 29 bd 08 7d f5 3d 0c 1f b5 3d
       -0.10014795 -0.041376293 0.119867384 0.08843812
0001a0 fe 1b b6 3d 2c 50 2d bd 4e fc c8 bd 4a f4 ce 3d
       0.08892058 -0.042312786 -0.09813748 0.10105188
0001b0 c0 42 42 bd c6 ba c3 bd 00 f6 dd bd 48 80 58 bd
       -0.04742694 -0.095571086 -0.108379364 -0.052856714
0001c0 30 ac e8 3c 80 41 7a 3c 9c 11 fa 3d c8 61 9f 3c
       0.028402418 0.0152744055 0.1221039 0.019455805
0001d0 04 20 44 bd 40 a6 ef 3c d2 f7 d1 bd b2 34 8a bd
       -0.047882095 0.029254079 -0.10252346 -0.06748332
0001e0 1e af 91 bd 50 6c 24 3c 1a 55 81 bd 9c 7f 83 3d
       -0.07113479 0.010035589 -0.0631506 0.06420824
0001f0 cc 59 08 bd 4c f2 8c bd d0 b6 3e 3d 10 f0 1c bd
       -0.033288762 -0.06882152 0.046561062 -0.03831488
000200 86 ca a2 3d 40 93 0a 3b 86 10 93 bd 40 8a ac 3c
       0.079487845 0.0021144897 -0.07180886 0.021062016
000210 a4 75 2d bd 60 4a 72 bc 88 67 25 3d 04 fe f5 3d
       -0.04234852 -0.01478824 0.04038194 0.1201134
000220 00 54 7a bc 28 1a 37 bd 7c cb a2 3d 30 93 d6 bd
       -0.015278816 -0.04470268 0.07948968 -0.104772925
000230 3c 2d 93 3d e8 33 8c 3c ba 75 fe 3d 86 b8 d8 3d
       0.07186362 0.017114595 0.12424798 0.1058207
000240 7a 84 ba bd d0 2c 17 bd 80 6d e1 3a e0 9a 6c 3d
       -0.09107299 -0.03690797 0.0017198771 0.057764888
000250 10 92 7e bd 80 17 d3 bb d0 fc fc 3d 86 6f 9d bd
       -0.062151015 -0.0064420104 0.12352908 -0.07687287
000260 2a 1f c3 bd 7a 01 b3 3d c8 a8 8a 3c 24 d1 ba 3d
       -0.095274284 0.08740516 0.016926184 0.09121922
000270 fa 41 c0 bd a8 cd d8 bc d2 9d 95 bd d4 34 b8 3d
       -0.09387584 -0.026465252 -0.073054925 0.08994451
000280 2a 4a d0 bd 7a 85 e7 3d 80 49 ef bd ec f4 ee bd
       -0.10170396 0.113047555 -0.11683941 -0.11667809
000290 b6 05 9d 3d 8c 7d 8d bd e4 43 7e bd f8 71 61 3d
       0.07667105 -0.06908712 -0.062076464 0.05504033
0002a0 24 7e d6 3d 64 01 2e bd 8a 9d d8 3d a0 ee 95 3d
       0.10473278 -0.042481795 0.10576923 0.07320905
0002b0 ae 4d ff 3d 5e 9e df 3d ac 97 11 bd 00 d6 1f 3a
       0.12465988 0.10918878 -0.035545036 0.0006097257
0002c0 08 9a 96 3c 28 3c a9 bc a8 76 fc bc a4 78 78 bd
       0.018383995 -0.020658568 -0.030818298 -0.060661927
0002d0 52 fb dd bd 60 10 57 3d b0 38 49 bc e8 d6 e0 3d
       -0.10838951 0.05250585 -0.012281582 0.1097849
0002e0 f4 85 2a bd e8 0a b7 bc d4 be 14 bd 30 a9 f1 bc
       -0.041631654 -0.022344068 -0.0363148 -0.02949962
0002f0 78 ae 9b 3c 2c c6 60 3d 4a 2e 93 3d 2c df 1e 3d
       0.019004092 0.05487649 0.07186563 0.038787052
000300 18 0b b5 3c 0e 2e cd bd 78 4e b6 bd 48 91 0c 3d
       0.022100016 -0.1001855 -0.089016855 0.03431824
000310 1c b5 8c bd a0 04 68 3c 12 9a f0 bd 7c 82 9d bd
       -0.06870481 0.014161259 -0.117481366 -0.076909035
000320 f8 b2 84 3d 2c 2e 55 bd d0 26 f3 3c 0c cd 10 3d
       0.06479448 -0.052045986 0.029681593 0.035351798
000330 20 1b bd bd ea d8 f5 bd cc f9 b1 bd 1a d1 97 bd
       -0.09233689 -0.12004264 -0.08690223 -0.0741293
000340 80 84 36 3d 50 e9 3c 3d 68 0a a3 3d 04 ad 78 3d
       0.044559956 0.04612094 0.07960969 0.060711876
000350 38 e4 ba 3c 5e c1 e9 bd 40 b3 86 3d 2e 1a 87 bd
       0.022813901 -0.11413835 0.06577158 -0.0659679
000360 3e fd 86 bd 50 f3 cd 3d 68 40 fe bd 4a 23 ad bd
       -0.06591271 0.10056174 -0.12414628 -0.084539965
000370 6a 14 9b bd be ec d5 3d 30 9b 53 3c 6e ad dc bd
       -0.07572253 0.104455456 0.012915418 -0.107752666
000380 66 82 ba 3d 00 64 a2 39 24 c1 f1 3d 4c e2 44 bd
       0.09106903 0.00030973554 0.11804417 -0.048067376
000390 b0 4a 4d bc 00 42 95 bb a8 22 3b bd 34 20 db bd
       -0.012530014 -0.004554987 -0.045687348 -0.10699502
0003a0 fa 47 e6 3d 2e 63 c3 bd a0 7d 7c bc 08 c1 45 3d
       0.11244197 -0.095404014 -0.015410811 0.048279792
0003b0 70 0b 41 3d d4 d3 09 bd a0 b4 c8 bc e6 ad b7 3d
       0.04713005 -0.03364928 -0.024500191 0.08968715
0003c0 f2 e0 dd 3d 8a e9 d0 3d fc 6e 52 bd e0 5d ff bc
       0.108339205 0.10200794 -0.051375374 -0.031172693
0003d0 90 dc 74 bd 24 75 ac 3d c0 28 59 bb 62 52 f6 3d
       -0.059780657 0.0842078 -0.003313586 0.12027432
0003e0 50 fe 96 bc 7e c8 91 bd 68 30 90 bc 8c 58 61 3d
       -0.018431813 -0.07118319 -0.017601207 0.055016086
0003f0 50 47 87 bd 10 18 df bd c0 b3 f8 3b 64 af 54 3d
       -0.06605399 -0.108932614 0.0075897872 0.051925078

impact_head.net.0.bias f4 [64]
000000 18 d0 f9 bc 9c bc 31 3d e0 c9 12 3c fa 73 ae bd
       -0.030494735 0.043392763 0.008959264 -0.085182145
000010 a8 46 9d bd 48 99 16 bd 10 e5 b0 3c 86 a4 f7 3d
       -0.07679492 -0.036767274 0.0215936 0.12091927
000020 78 9c 60 3d ae fb 8a 3d fc 5f 04 bd 38 e9 c7 bc
       0.05483672 0.06786285 -0.0323181 -0.0244032
000030 d4 61 23 3d 4c 46 ae bd c4 21 90 bd 00 f8 41 39
       0.039888218 -0.08509502 -0.0703769 0.00018498302
000040 ba c3 c4 bd 90 48 6e bd 62 52 a5 bd c8 40 d7 3d
       -0.096076444 -0.05817467 -0.08072354 0.10510403
000050 7c 7d ee bd 40 21 8a 3c dc ba a3 bd 44 43 bd bd
       -0.11645028 0.016861558 -0.07994625 -0.092413455
000060 3e ee a6 bd 80 42 99 3c b0 2b 90 3d 5a ca af bd
       -0.0815091 0.018708467 0.07039583 -0.085835174
000070 cc e0 33 3d f0 9d b6 bd 78 38 bc bd c8 43 86 bd
       0.043915555 -0.08916843 -0.09190458 -0.06555897
000080 d0 db c4 bc 48 b8 d4 3d 92 db 83 3d d0 66 ad 3d
       -0.024030596 0.10386711 0.06438364 0.084668756
000090 00 d8 8b ba 74 d1 4f bd 6c e1 75 3d 54 eb cc 3d
       -0.0010669231 -0.05073686 0.060029432 0.10005823
0000a0 90 e0 4c 3c 6c d4 75 3d 40 84 0b 3d e0 2e 14 bc
       0.012504712 0.060017034 0.03406167 -0.009044379
0000b0 d0 10 15 bc 56 dd e6 3d f8 51 0e bd be 4d a6 3d
       -0.009098247 0.11272685 -0.03474614 0.08120297
0000c0 d8 e1 33 3d bc ac 17 3d 84 c5 5f 3d 20 d8 bc bc
       0.043916553 0.037029967 0.054631725 -0.023052275
0000d0 da 84 93 bd 2c 56 76 3d d0 3c 98 3d 40 32 fb bc
       -0.07203074 0.060140774 0.07433474 -0.03066361
0000e0 98 82 ae bc 5c ab 59 3d 1c a3 9c bd 0e 48 b4 bd
       -0.021302506 0.053141937 -0.07648298 -0.08802806
0000f0 ac 2f e5 3d d0 64 6b 3c 00 d5 e3 bd 52 d6 cb 3d
       0.11190733 0.014367297 -0.11124611 0.09952988

impact_head.net.3.weight f4 [32, 64]
000000 d0 c5 3d 3d 1e 0c b4 bd f2 cc b7 bd 5c 20 f6 bd
       0.046331227 -0.08791374 -0.08974637 -0.12017891
000010 84 69 37 3d 56 ef f2 3d ec ee 5a bd 9e b0 cb bd
       0.044778362 0.11862056 -0.05345051 -0.099457964
000020 14 cf 65 bd 0e e9 b4 bd fc 45 36 bd 9c 24 95 3d
       -0.05610569 -0.08833514 -0.044500336 0.07282373
000030 8c 97 3b bd 70 45 de 3c 44 45 5a bd 74 e7 52 3d
       -0.045798823 0.02713272 -0.053288713 0.051490262
000040 d8 b7 85 bd 42 c1 d2 3d 50 cd db bd f0 5d d2 3d
       -0.06529206 0.10290767 -0.107325196 0.102718234
000050 1c 03 60 3d cc 24 bc 3d 00 51 cb 3b b4 c9 cd 3d
       0.054690465 0.09186706 0.0062047243 0.100482374
000060 60 52 4f bd 00 b0 56 3a 70 6b 7f 3d 2c c5 7d 3d
       -0.05061567 0.0008189678 0.06235832 0.061955616
000070 94 4b f7 bd 24 bd ca 3d 62 13 a1 bd 72 47 c6 3d
       -0.12074962 0.09899357 -0.07865025 0.09681596
000080 d0 c1 6c 3c a0 27 ca 3c 00 a3 7c bc 56 29 a6 3d
       0.014450505 0.024677098 -0.015419722 0.08113353
000090 04 f8 fd bd 0a d4 9a 3d c0 a6 53 3c 34 c5 95 bd
       -0.12400821 0.075599745 0.012918174 -0.07313004
0000a0 b8 26 9c 3c c0 d1 33 bb cc 2f 5e 3d 40 04 bb 3d
       0.019061431 -0.0027438253 0.0542448 0.0913167
0000b0 b4 46 c9 3d 00 8c 38 ba a0 43 83 bc c0 65 0d bd
       0.09827939 -0.00070399046 -0.016023457 -0.034520864
0000c0 40 59 74 3d 96 56 95 bd cc e4 87 3d 3a 24 aa 3d
       0.059655428 -0.072919056 0.066354364 0.08307691
0000d0 88 71 e2 bd c0 0b f6 3c 18 bc 0a bd 18 cc 18 3d
       -0.110568106 0.0300349 -0.033870786 0.037304014
0000e0 78 f2 d7 3c 50 5e f2 bd b2 65 ae bd 3e db c2 bd
       0.026360735 -0.11834395 -0.085154906 -0.095144734
0000f0 c2 71 8d bd 00 f4 b9 ba 74 cf 8a bd 38 c5 45 bd
       -0.06906463 -0.0014187098 -0.0677785 -0.048283786
000100 40 56 16 3c e6 7f bd 3d 48 da 34 bd e0 a2 03 3d
       0.009175837 0.0925291 -0.04415348 0.03213775
000110 d8 f2 d0 bc d4 38 32 bd 98 2e 29 3d cc f1 28 3d
       -0.025506422 -0.043511227 0.0413042 0.04124622
000120 fc b7 62 3d 58 98 e6 3d 48 a0 ba 3c 60 46 c6 bd
       0.055351242 0.11259526 0.022781506 -0.09681392
000130 54 10 20 3d c0 92 3e 3b da d6 a6 bd 60 03 f3 3b
       0.03907807 0.002907917 -0.081464484 0.007416174
000140 10 a7 dc 3d fe 72 ea bd c4 4b ba 3d 2c 5d 3f bd
       0.10774052 -0.11447714 0.090964824 -0.046719715
000150 88 30 5b 3d 80 cc e6 3d a4 60 d9 bd 20 75 8b 3b
       0.05351308 0.11269474 -0.10614136 0.0042559057
000160 32 6d 94 3d 40 88 2f bb 90 a9 60 bc 98 e8 0f bd
       0.0724739 -0.0026784092 -0.013712302 -0.035133928
000170 34 d5 1e 3d 6c fd 24 bd 6c 1e 4e bd 1a 87 e2 bd
       0.038777545 -0.040280744 -0.05032198 -0.11060925
000180 00 41 44 bd 14 15 31 bd 68 94 85 3c c8 0f 6e 3d
       -0.04791355 -0.043232992 0.016306117 0.05812052
000190 b6 bf ab 3d 10 a3 29 bd e0 f2 98 bb 96 67 b1 3d
       0.08386175 -0.041415274 -0.004667625 0.086623356
0001a0 52 80 8f 3d e4 7b d1 bd 68 94 2f bd 88 14 fc 3c
       0.07006897 -0.102287084 -0.04286614 0.030771509
0001b0 d0 bf 57 3c 6c 4a 45 bd 0c 51 f8 bd 28 78 ae bc
       0.01316829 -0.048166677 -0.121248335 -0.02129753
0001c0 18 ca 48 bd 9a f1 f4 3d f4 3f 20 3d cc 9f 17 3d
       -0.049020857 0.11960144 0.03912349 0.03701763
0001d0 e0 4e ea bc 90 4f ca 3d 86 b0 a9 bd 52 43 84 bd
       -0.028602064 0.098784566 -0.08285622 -0.06458153
0001e0 42 ea ae bd 88 5b ca 3c 08 e4 83 3c 0a 2c f7 bd
       -0.08540775 0.024701849 0.016099945 -0.12068947
0001f0 c8 df ed bd 20 87 2b 3d 30 17 37 bd 24 e1 aa 3d
       -0.116149485 0.041876912 -0.044699848 0.083437234
000200 f0 b0 3a 3d cc 42 e4 bd 74 4a 71 bd 20 d6 44 bd
       0.045578897 -0.11145553 -0.058908895 -0.048055768
000210 d0 86 f2 bd d6 e3 e2 bd be 9d f2 bd 04 aa 96 bd
       -0.1184212 -0.110786125 -0.11846493 -0.07356647
000220 94 3c 6a 3d e8 ad 80 bc 08 2a fb bc 0e 80 9b bd
       0.057186678 -0.015707925 -0.03065969 -0.07592784
000230 44 27 65 3d fc aa b2 3d 78 a9 f3 bc 70 e9 28 3d
       0.05594565 0.08724019 -0.029743895 0.04123825
000240 2c ff 7d 3d b0 2e 87 bd 2a 3e c1 bd 7a f4 ea bd
       0.06201093 -0.06600702 -0.09435685 -0.114724115
000250 c0 d7 7f bc 10 6b 9b 3c dc 7f b5 bd 2e 12 bb bd
       -0.015615404 0.01897195 -0.08862278 -0.09134327
000260 c8 b7 83 bc 0a 33 e8 bd d8 54 80 bd 10 79 af bd
       -0.016078845 -0.1133786 -0.06266183 -0.08568013
000270 60 16 7b bd 8c b8 0b bd d4 2f 4b 3d c4 b4 f4 3d
       -0.061300635 -0.034111544 0.04960616 0.11948541
000280 7c 99 db 3d 08 bd 85 3d f0 9b 05 bd 72 73 80 bd
       0.10722634 0.065301955 -0.032619417 -0.062720194
000290 46 72 cc bd de 1e dc 3d 44 aa 41 bd 62 9f a1 bd
       -0.099827334 0.10748075 -0.04728152 -0.07891728
0002a0 7c 89 68 3d 40 a3 1f 3d 74 9f 52 bd 00 d4 2f ba
       0.05677174 0.038974047 -0.051421598 -0.00067073107
0002b0 38 4a cd 3d c2 b6 a2 bd d8 5e b8 3d d4 49 6e bd
       0.10023922 -0.079450145 0.09002465 -0.058175877
0002c0 30 b9 2d 3d 10 c3 b5 3c e0 6b be bc 44 82 8e 3d
       0.042412937 0.02218774 -0.023244798 0.0695844
0002d0 c0 65 b4 bc 78 c9 c7 3d e4 99 f0 bd c0 8d 5b 3b
       -0.022021174 0.09755224 -0.11748102 0.0033501238
0002e0 b6 e3 ac bd 24 8e 99 bd 10 8a 5f bc 26 2a dd 3d
       -0.0844187 -0.07497814 -0.0136437565 0.10799055
0002f0 70 ed 63 bc 70 41 f2 3d 94 1c 24 3d 00 3a 89 bb
       -0.01391159 0.118288875 0.040066317 -0.0041878223
000300 c0 25 2e bb 4c 9a 49 bd 22 dd b9 3d 8c 21 67 bd
       -0.0026572794 -0.049219415 0.09075381 -0.056428477
000310 20 9e 1e bc 94 f7 d6 bd 88 d4 ad 3d 1e 59 e8 3d
       -0.009681255 -0.104964405 0.08487803 0.11345123
000320 1e f5 9c 3d 98 97 5b 3d 86 29 9b bd 5e 03 8a 3d
       0.0766394 0.053611368 -0.07576279 0.067389235
000330 40 d7 e2 3b 8c 11 a7 3d 18 da 54 bd c4 84 f2 bd
       0.0069226325 0.08157644 -0.051965803 -0.11841729
000340 b8 cf df bd e8 fa 66 bd 10 52 af bd a0 f8 69 bd
       -0.10928291 -0.056391627 -0.08560574 -0.057121873
000350 ba 41 bb 3d 24 09 d1 3d 28 d9 ca bd 00 c8 96 38
       0.09143396 0.102068216 -0.099047005 7.18981e-05
000360 0a 04 a3 3d 18 43 07 3d a0 ee 4d 3d ae c5 92 3d
       0.07959755 0.03302297 0.0502764 0.07166611
000370 d4 34 e6 bd 80 33 a2 3c 7c cb 8b bd a0 8c 81 bd
       -0.11240545 0.019799948 -0.06825921 -0.0632565
000380 50 4d 39 bc 16 55 cc 3d 20 b8 e2 bd 4a 98 df bd
       -0.011309937 0.09977166 -0.11070275 -0.10917719
000390 dc 1f e9 3d 70 94 13 3d 22 9e cb 3d 30 0e e7 3d
       0.1138303 0.036030233 0.09942271 0.11282003
0003a0 62 69 d0 bd 90 a9 82 3c 50 76 9d 3d 2c f8 16 3d
       -0.1017635 0.015949994 0.07688582 0.03685777
0003b0 fc 91 7b bd 5a 70 88 3d 74 9d a6 bd 00 b5 67 ba
       -0.06141852 0.06662054 -0.081355006 -0.0008838922
0003c0 0c e0 08 3d 54 9d f0 3d 08 ac e3 3c 0e 06 a8 bd
       0.033416793 0.11748758 0.027791992 -0.0820428
0003d0 38 79 60 3d cc 10 b4 bd 00 89 e1 bb 80 79 18 bb
       0.054803103 -0.08792266 -0.0068827868 -0.002326578
0003e0 72 17 f5 3d 0c 66 27 3d 7c 0c 38 bd e4 5c 73 3d
       0.119673625 0.040868804 -0.04493378 0.05941476
0003f0 12 c9 b5 bd c4 ff a6 bd a0 bc c5 bb de 1b 81 3d
       -0.08876242 -0.08154252 -0.0060344487 0.06304143

impact_head.net.3.bias f4 [32]
000000 46 5d ff 3d 30 79 ee bd 8c de f3 bd b8 3e 0e 3d
       0.12468962 -0.116442084 -0.11907682 0.034727782
000010 8a ec 9d 3d 74 7a 1d bd b0 b9 7e bc ea 0c be 3d
       0.07711132 -0.03844686 -0.015547201 0.09279807
000020 70 9e 8c 3c d8 c1 38 bd d0 50 e8 bd 78 66 85 3d
       0.017165393 -0.04510674 -0.11343539 0.06513685
000030 74 5f a1 3d fc dc c2 bd 12 22 f1 bd 7e d2 b7 3d
       0.07879534 -0.09514806 -0.117740765 0.08975695
000040 d0 8e 22 bc 02 f2 f9 bd 8a 5f e6 bd 9c dd 42 3d
       -0.0099217445 -0.122043625 -0.112486914 0.047574624
000050 44 fc 36 bd 4c 3a 2e bd 60 4a 17 3d 1a 1e 86 bd
       -0.044674173 -0.042536065 0.036936164 -0.0654871
000060 80 7e 03 3c a2 c0 d2 bd 60 42 d3 3c ac 12 e5 bd
       0.008025765 -0.10290648 0.025788486 -0.11185202
000070 f2 4c f0 3d 68 b5 66 3d 88 3a 7d 3d a4 48 7c bd
       0.11733426 0.056325346 0.061823398 -0.061592713
